…
W0907 12:25:34.682798 140157381318272 deprecation.py:506] From /usr/lib/python3.7/site-packages/tensorflow/python/ops/init_ops.py:1251: calling VarianceScaling.__init__ (from tensorflow.python.ops.init_ops) with dtype is deprecated and will be removed in a future version.
Instructions for updating:
Call initializer instance with the dtype argument instead of passing it to the constructor
Model: "sequential"
_________________________________________________________________
Layer (type)                 Output Shape              Param #   
=================================================================
conv2d (Conv2D)              (None, 28, 28, 32)        320       
_________________________________________________________________
max_pooling2d (MaxPooling2D) (None, 14, 14, 32)        0         
_________________________________________________________________
batch_normalization (BatchNo (None, 14, 14, 32)        128       
_________________________________________________________________
flatten (Flatten)            (None, 6272)              0         
_________________________________________________________________
dense (Dense)                (None, 512)               3211776   
_________________________________________________________________
dense_1 (Dense)              (None, 384)               196992    
_________________________________________________________________
dense_2 (Dense)              (None, 256)               98560     
_________________________________________________________________
dense_3 (Dense)              (None, 192)               49344     
_________________________________________________________________
dense_4 (Dense)              (None, 128)               24704     
_________________________________________________________________
dense_5 (Dense)              (None, 62)                7998      
=================================================================
Total params: 3,589,822
Trainable params: 3,589,758
Non-trainable params: 64
_________________________________________________________________
Train on 474170 samples, validate on 118543 samples
2019-09-07 12:25:35.291609: I tensorflow/core/platform/cpu_feature_guard.cc:142] Your CPU supports instructions that this TensorFlow binary was not compiled to use: AVX2 FMA
…
