…
W0918 19:54:30.229771 139692013069952 deprecation.py:506] From /usr/lib/python3.7/site-packages/tensorflow_core/python/ops/resource_variable_ops.py:1633: calling BaseResourceVariable.__init__ (from tensorflow.python.ops.resource_variable_ops) with constraint is deprecated and will be removed in a future version.
Instructions for updating:
If using Keras pass *_constraint arguments to layers.
Model: "sequential"
_________________________________________________________________
Layer (type)                 Output Shape              Param #   
=================================================================
conv2d (Conv2D)              (None, 26, 26, 32)        320       
_________________________________________________________________
batch_normalization (BatchNo (None, 26, 26, 32)        128       
_________________________________________________________________
conv2d_1 (Conv2D)            (None, 24, 24, 32)        9248      
_________________________________________________________________
batch_normalization_1 (Batch (None, 24, 24, 32)        128       
_________________________________________________________________
conv2d_2 (Conv2D)            (None, 12, 12, 32)        25632     
_________________________________________________________________
batch_normalization_2 (Batch (None, 12, 12, 32)        128       
_________________________________________________________________
dropout (Dropout)            (None, 12, 12, 32)        0         
_________________________________________________________________
conv2d_3 (Conv2D)            (None, 10, 10, 64)        18496     
_________________________________________________________________
batch_normalization_3 (Batch (None, 10, 10, 64)        256       
_________________________________________________________________
conv2d_4 (Conv2D)            (None, 8, 8, 64)          36928     
_________________________________________________________________
batch_normalization_4 (Batch (None, 8, 8, 64)          256       
_________________________________________________________________
conv2d_5 (Conv2D)            (None, 4, 4, 64)          102464    
_________________________________________________________________
batch_normalization_5 (Batch (None, 4, 4, 64)          256       
_________________________________________________________________
dropout_1 (Dropout)          (None, 4, 4, 64)          0         
_________________________________________________________________
conv2d_6 (Conv2D)            (None, 1, 1, 128)         131200    
_________________________________________________________________
batch_normalization_6 (Batch (None, 1, 1, 128)         512       
_________________________________________________________________
flatten (Flatten)            (None, 128)               0         
_________________________________________________________________
dropout_2 (Dropout)          (None, 128)               0         
_________________________________________________________________
dense (Dense)                (None, 27)                3483      
=================================================================
Total params: 329,435
Trainable params: 328,603
Non-trainable params: 832
_________________________________________________________________
W0918 19:54:31.312242 139692013069952 deprecation.py:323] From /usr/lib/python3.7/site-packages/tensorflow_core/python/keras/optimizer_v2/optimizer_v2.py:468: BaseResourceVariable.constraint (from tensorflow.python.ops.resource_variable_ops) is deprecated and will be removed in a future version.
…
