…
W0919 16:34:32.689229 140100379494016 deprecation.py:506] From /usr/lib/python3.7/site-packages/tensorflow_core/python/ops/resource_variable_ops.py:1633: calling BaseResourceVariable.__init__ (from tensorflow.python.ops.resource_variable_ops) with constraint is deprecated and will be removed in a future version.
Instructions for updating:
If using Keras pass *_constraint arguments to layers.
Name: 5-conv-128-nodes-3-dense1568891073
Model 1 :
Model: "sequential"
_________________________________________________________________
Layer (type)                 Output Shape              Param #   
=================================================================
conv2d (Conv2D)              (None, 26, 26, 32)        320       
_________________________________________________________________
batch_normalization (BatchNo (None, 26, 26, 32)        128       
_________________________________________________________________
conv2d_1 (Conv2D)            (None, 24, 24, 32)        9248      
_________________________________________________________________
batch_normalization_1 (Batch (None, 24, 24, 32)        128       
_________________________________________________________________
conv2d_2 (Conv2D)            (None, 12, 12, 32)        25632     
_________________________________________________________________
batch_normalization_2 (Batch (None, 12, 12, 32)        128       
_________________________________________________________________
dropout (Dropout)            (None, 12, 12, 32)        0         
_________________________________________________________________
conv2d_3 (Conv2D)            (None, 10, 10, 64)        18496     
_________________________________________________________________
batch_normalization_3 (Batch (None, 10, 10, 64)        256       
_________________________________________________________________
conv2d_4 (Conv2D)            (None, 8, 8, 64)          36928     
_________________________________________________________________
batch_normalization_4 (Batch (None, 8, 8, 64)          256       
_________________________________________________________________
conv2d_5 (Conv2D)            (None, 4, 4, 64)          102464    
_________________________________________________________________
batch_normalization_5 (Batch (None, 4, 4, 64)          256       
_________________________________________________________________
dropout_1 (Dropout)          (None, 4, 4, 64)          0         
_________________________________________________________________
conv2d_6 (Conv2D)            (None, 1, 1, 128)         131200    
_________________________________________________________________
batch_normalization_6 (Batch (None, 1, 1, 128)         512       
_________________________________________________________________
flatten (Flatten)            (None, 128)               0         
_________________________________________________________________
dropout_2 (Dropout)          (None, 128)               0         
_________________________________________________________________
dense (Dense)                (None, 27)                3483      
=================================================================
Total params: 329,435
Trainable params: 328,603
Non-trainable params: 832
_________________________________________________________________
Name: 5-conv-128-nodes-3-dense1568891073
Model 2 :
Model: "sequential_1"
_________________________________________________________________
Layer (type)                 Output Shape              Param #   
=================================================================
conv2d_7 (Conv2D)            (None, 26, 26, 32)        320       
_________________________________________________________________
batch_normalization_7 (Batch (None, 26, 26, 32)        128       
_________________________________________________________________
conv2d_8 (Conv2D)            (None, 24, 24, 32)        9248      
_________________________________________________________________
batch_normalization_8 (Batch (None, 24, 24, 32)        128       
_________________________________________________________________
conv2d_9 (Conv2D)            (None, 12, 12, 32)        25632     
_________________________________________________________________
batch_normalization_9 (Batch (None, 12, 12, 32)        128       
_________________________________________________________________
dropout_3 (Dropout)          (None, 12, 12, 32)        0         
_________________________________________________________________
conv2d_10 (Conv2D)           (None, 10, 10, 64)        18496     
_________________________________________________________________
batch_normalization_10 (Batc (None, 10, 10, 64)        256       
_________________________________________________________________
conv2d_11 (Conv2D)           (None, 8, 8, 64)          36928     
_________________________________________________________________
batch_normalization_11 (Batc (None, 8, 8, 64)          256       
_________________________________________________________________
conv2d_12 (Conv2D)           (None, 4, 4, 64)          102464    
_________________________________________________________________
batch_normalization_12 (Batc (None, 4, 4, 64)          256       
_________________________________________________________________
dropout_4 (Dropout)          (None, 4, 4, 64)          0         
_________________________________________________________________
conv2d_13 (Conv2D)           (None, 1, 1, 128)         131200    
_________________________________________________________________
batch_normalization_13 (Batc (None, 1, 1, 128)         512       
_________________________________________________________________
flatten_1 (Flatten)          (None, 128)               0         
_________________________________________________________________
dropout_5 (Dropout)          (None, 128)               0         
_________________________________________________________________
dense_1 (Dense)              (None, 27)                3483      
=================================================================
Total params: 329,435
Trainable params: 328,603
Non-trainable params: 832
_________________________________________________________________
2019-09-19 16:34:35.133402: I tensorflow/core/platform/cpu_feature_guard.cc:142] Your CPU supports instructions that this TensorFlow binary was not compiled to use: AVX2 FMA
2019-09-19 16:34:35.161994: I tensorflow/core/platform/profile_utils/cpu_utils.cc:94] CPU Frequency: 2593000000 Hz
…
