…
W0907 20:39:23.259089 140045871539840 deprecation.py:506] From /usr/lib/python3.7/site-packages/tensorflow/python/ops/init_ops.py:1251: calling VarianceScaling.__init__ (from tensorflow.python.ops.init_ops) with dtype is deprecated and will be removed in a future version.
Instructions for updating:
Call initializer instance with the dtype argument instead of passing it to the constructor
Model: "sequential"
_________________________________________________________________
Layer (type)                 Output Shape              Param #   
=================================================================
conv2d (Conv2D)              (None, 28, 28, 32)        320       
_________________________________________________________________
batch_normalization (BatchNo (None, 28, 28, 32)        128       
_________________________________________________________________
conv2d_1 (Conv2D)            (None, 26, 26, 32)        9248      
_________________________________________________________________
batch_normalization_1 (Batch (None, 26, 26, 32)        128       
_________________________________________________________________
conv2d_2 (Conv2D)            (None, 13, 13, 32)        25632     
_________________________________________________________________
batch_normalization_2 (Batch (None, 13, 13, 32)        128       
_________________________________________________________________
dropout (Dropout)            (None, 13, 13, 32)        0         
_________________________________________________________________
conv2d_3 (Conv2D)            (None, 11, 11, 64)        18496     
_________________________________________________________________
batch_normalization_3 (Batch (None, 11, 11, 64)        256       
_________________________________________________________________
conv2d_4 (Conv2D)            (None, 9, 9, 64)          36928     
_________________________________________________________________
batch_normalization_4 (Batch (None, 9, 9, 64)          256       
_________________________________________________________________
conv2d_5 (Conv2D)            (None, 5, 5, 64)          102464    
_________________________________________________________________
batch_normalization_5 (Batch (None, 5, 5, 64)          256       
_________________________________________________________________
dropout_1 (Dropout)          (None, 5, 5, 64)          0         
_________________________________________________________________
conv2d_6 (Conv2D)            (None, 2, 2, 128)         131200    
_________________________________________________________________
batch_normalization_6 (Batch (None, 2, 2, 128)         512       
_________________________________________________________________
flatten (Flatten)            (None, 512)               0         
_________________________________________________________________
dropout_2 (Dropout)          (None, 512)               0         
_________________________________________________________________
dense (Dense)                (None, 62)                31806     
=================================================================
Total params: 357,758
Trainable params: 356,926
Non-trainable params: 832
_________________________________________________________________
Train on 474170 samples, validate on 118543 samples
2019-09-07 20:39:24.819596: I tensorflow/core/platform/cpu_feature_guard.cc:142] Your CPU supports instructions that this TensorFlow binary was not compiled to use: AVX2 FMA
…
